init_searchmodel.npz (npz, 29792 bytes, 2 tensors)

mean_d f8 [60]
0	0xbfc719192c17ff69	-0.18045344021811197
1	0xbfc30e4c8c3fbcec	-0.14887387130827479
2	0xbfc0f17308554aaf	-0.1323684492768584
3	0x3f8b5f448efef9fd	0.013365302671329177
4	0xbfb939f259109279	-0.09854044603759772
5	0xbfc5dceb4f45d9c9	-0.17080441828484386
6	0xbfc84fd253fd3ecd	-0.18993596173321806
7	0xbfc5ec95dce9fc90	-0.17128251349274537
8	0xbfc71bbe40a0759f	-0.1805341544685861
9	0xbfab58841434a835	-0.05340969797755727
10	0x3fa04e92c284abb4	0.031849466557410194
11	0xbfc56edde9eda6c6	-0.16744588777810615
12	0xbfcb4901cb4f93dd	-0.21316549708640667
13	0x3fbd756ac53e7794	0.11507289233710899
14	0xbfc753eb07523f25	-0.18224847657665424
15	0x3fbabbe8a24f8221	0.10442975962315205
16	0x3fc52c3b8d4429db	0.1654123725678137
17	0xbfc038d24c41c9a8	-0.12673405383573066
18	0xbfbe3dfce9c000a0	-0.11813336092746107
19	0x3fb3c5127b5bafd3	0.0772258330504763
20	0xbfac86f29da518e3	-0.05571706938148837
21	0x3fad4b431798b79a	0.05721482909244387
22	0xbfa6193555a5ba00	-0.04316107435703387
23	0x3fbef6ac7dfb1b85	0.12095144344048776
24	0x3fa1f0f34896307e	0.035041430102041624
25	0xbfc0113630b4227b	-0.12552525880916562
26	0xbfb4de08f0a578c8	-0.08151298403888341
27	0xbfafe456033d8915	-0.0622889403300794
28	0xbfb5a1a2e655bbf1	-0.0844976246205389
29	0xbfbb1f9d157149f2	-0.10595113538264636
30	0x3fc0ee466158dbb1	0.1322715735747955
31	0x3fc149ffb8eaaa29	0.1350707676804899
32	0x3fc219a2b64f9680	0.14140733625315605
33	0x3fc27016739b5f71	0.14404564518803967
34	0xbfc61f682b96e90b	-0.17283346298592792
35	0xbfc77ead8f889b58	-0.1835534048888927
36	0x3fb0df3cfebae9f8	0.06590634554860475
37	0x3fbccb3d90fb94ae	0.11247620381944287
38	0x3fb523c8249a7d7e	0.08257723706855377
39	0x3fb47ccd5fdff18a	0.08002933111851554
40	0xbfc23855eaa665f3	-0.14234422643202968
41	0xbfc45655e4de494d	-0.1588847510834718
42	0x3fc036128745fe3d	0.12665015797755244
43	0x3fbca7cbb53c8ad5	0.11193535971373632
44	0xbf7bd03d0d1e53ac	-0.006790388566419486
45	0x3fab217ef47bc3a7	0.0529899285737721
46	0xbfcdefd9fd50f0e0	-0.23388218754724388
47	0xbfc7a6556616061f	-0.18476359829587438
48	0xbfcd263fdaec3684	-0.2277297800978212
49	0xbfd02b2f8e2e4628	-0.2526358498081174
50	0x3fc905677ac83750	0.19547742362231668
51	0x3fca49a771359df9	0.20537274387173435
52	0x3fc781e76dcc0c5c	0.1836518560522532
53	0x3fc9616d44e91117	0.19828573097959953
54	0xbfc778fee18576e6	-0.18337999355110596
55	0xbfc82c222f23c366	-0.18884684850447825
56	0x3fb2e436fcd5b056	0.07379478142473891
57	0x3fc2fbc4a0ef0929	0.14830835207073648
58	0x3fb75c9a1612e717	0.09125674284851147
59	0x3fbe575c7b4d3c0c	0.11852052698417043

cov_dxd f8 [60, 60]
0	0x3fefdfd04b221dd6	0.996071001763023
1	0x3fef50430d1d6485	0.9785475975178463
2	0x3feec30f3c8ec00d	0.9613109762922264
3	0x3fbd68e456847bcf	0.1148817740654373
4	0x3fdb3d316ebd513a	0.4256099301758415
5	0x3fe5126f9caa3c3f	0.6585004863608289
6	0x3fe48dc50c0fb946	0.642305873448813
7	0x3fe375bea415b2f0	0.6081231312542439
8	0x3fe3ac68e66a13eb	0.6147961139946551
9	0xbf95ff95e1d947df	-0.021482793721879886
10	0xbfd01a249081d39f	-0.251595631714105
11	0x3fe494e70994ddb4	0.6431765734804942
12	0x3fe4d5879406549b	0.6510656252963999
13	0xbfd5309bb95f8f58	-0.33109181502208207
14	0x3fe3813acccc41bb	0.6095251083334497
15	0xbfc180fe42294b4a	-0.1367490599683044
16	0xbfdd81d9e683abd1	-0.4610504866711241
17	0x3fdeb01c7b37f023	0.4794989779763929
18	0x3fe11c0bc08e001a	0.5346735726197978
19	0xbfc13f98a0ba230d	-0.13475330207827377
20	0x3fe46efa0efd922e	0.6385469715865548
21	0x3fb236a549f3afc5	0.0711463265940316
22	0x3fd26bdabfe02064	0.28783291566697344
23	0xbfb8e14deb3d8f68	-0.09718787186790012
24	0x3fc0b9a00094a34b	0.13066482570982382
25	0x3fe4c39d0e6d63fe	0.6488786012442913
26	0x3fdc64ba3d2ee99a	0.44364791846205665
27	0x3fd1dd19fb78d638	0.27911996419729546
28	0x3fd83718de09dac9	0.37836286242911094
29	0x3fdad6b6aedff4c6	0.4193550784837722
30	0xbfd03bb24a88b3ef	-0.2536435821410227
31	0xbfd08c978fb5e490	-0.25858105692129474
32	0xbfd54d0c257c0236	-0.33282760296427527
33	0xbfd4fdbd398e565e	-0.3279870092459073
34	0x3fe20387a1cb46b0	0.5629308853187549
35	0x3fe3553bb019f346	0.6041544379691934
36	0x3fb476f915d723ce	0.07994038375103615
37	0xbfcb2f4af6e15259	-0.21238076262183617
38	0x3f8491a87e86427e	0.010043445931644298
39	0x3fb10abdc5b7f91f	0.06657014920344693
40	0x3fb831a3e8d1a0fc	0.09450745042852654
41	0x3faf9cb26bb05c91	0.06174237789689941
42	0xbfd9675727086827	-0.39693239986229617
43	0xbfd50934b46eb759	-0.3286868822132099
44	0x3fcb1209a27ff109	0.2114879649597088
45	0x3fba08f65d7d0147	0.10169925482205598
46	0x3fde47ef8175081e	0.47314059870052627
47	0x3fc8c078d664dcab	0.19337377994972846
48	0x3fdbb71b7dabbcdc	0.4330509879354858
49	0x3fdb7c23e5ae7349	0.42945191793278475
50	0xbfd87544c2da3924	-0.3821575072150998
51	0xbfda38465a051e76	-0.4096847418881916
52	0xbfd9f58c33695a1c	-0.40561203976304383
53	0xbfdb8339b7a43dfd	-0.4298843663572994
54	0x3fe4e3791956bdd6	0.6527677054308991
55	0x3fe4c3e6162fd75f	0.6489134248101712
56	0x3fd1509e7944bd42	0.27054559557560165
57	0xbfd49667c9b43814	-0.32168001840261806
58	0x3fc995d5713a4b45	0.199885063445061
59	0x3fc63105260f7749	0.17337097509783408
60	0x3fef50430d1d6485	0.9785475975178463
61	0x3ff0b55fecbce3cd	1.044280934102278
62	0x3fef83b7a03fb3d9	0.984828770624172
63	0x3fbed2ecf02762d9	0.12040596831446794
64	0x3fd6ab0815f302d3	0.35418893950922586
65	0x3fdf9416f2fce73a	0.4934136746338599
66	0x3fe08920c48a2ea0	0.5167392576854191
67	0x3fe044654b4dfb87	0.5083490820687623
68	0x3fdf891298cdcf6b	0.4927412502504384
69	0xbf8f767824489b49	-0.015362681014335815
70	0xbfcb366e92a56d28	-0.2125986305280574
71	0x3fde772d8e5ec883	0.4760240450224346
72	0x3fe1120111ff21f9	0.5334477759834605
73	0xbfd0bb05b38bddbf	-0.2614149335272166
74	0x3fe0e0c0af37f2f5	0.527435629104359
75	0xbf97622e38df7ccf	-0.02283546659589036
76	0xbfd5b1275281209f	-0.3389375978190489
77	0x3fd39580d5aaf3ea	0.305999954853006
78	0x3fd98de39602049c	0.3992852177544337
79	0xbf95c77ee072073a	-0.021268827866612862
80	0x3fe718da20547bc8	0.7217836982198316
81	0x3fbd5985eee3dbec	0.11464726526524743
82	0x3fd13c8885b802ca	0.26931965883708797
83	0xbf8c5301d48636a8	-0.0138301985723744
84	0x3fc3598356282a8e	0.1511692209899888
85	0x3fe00be0c23e2ae1	0.5014499467664245
86	0x3fd79391ebc6e433	0.36838195824708747
87	0x3fd0173e9029cc04	0.2514187248081614
88	0x3fd51c094ea29af0	0.3298362033769271
89	0x3fd72450b60fee09	0.36159150866998907
90	0xbfc2fe9701ded692	-0.14839446631747372
91	0xbfc33bad94810d02	-0.15025872946907987
92	0xbfcc4886bbedb0fc	-0.22096332718081857
93	0xbfcb0072ca547a54	-0.21095118407625313
94	0x3fd9c3e6cb254f7c	0.40258188093616076
95	0x3fdd0670da618774	0.4535181172014895
96	0x3fbd18e45980a55a	0.11366107163543884
97	0xbfbe5aa3c96ceebe	-0.11857055347075637
98	0x3fb16cc9873f4af5	0.06806621124205121
99	0x3fbe64d4162c3ccd	0.11872602025345032
100	0x3fad0781a98cc24a	0.05669789499950591
101	0x3faaf6a1ce949389	0.0526629032777129
102	0xbfd33713ef5b4c83	-0.30023668646499163
103	0xbfcc2c9cdb8893c3	-0.2201114723149243
104	0x3fc0837783f195d2	0.12901205008090116
105	0x3fb4a7ecefa92561	0.08068734026996573
106	0x3fd5e6eabf1fb2c5	0.34221905388293933
107	0x3fc4c2dbbad57f10	0.16219660399200864
108	0x3fd49d8f2f796393	0.322116657601833
109	0x3fd3d6a50bf21114	0.30997587362823364
110	0xbfd08d2ff15284ee	-0.25861738745341156
111	0xbfd1eae3b0e9aa7b	-0.2799615123428009
112	0xbfd22be25bae230a	-0.2839284797014875
113	0xbfd3381e83b4caf2	-0.30030024396835053
114	0x3fdf31a69f101778	0.4874054482792114
115	0x3fe0135d6fe141e1	0.5023638901857873
116	0x3fcfcb668b85525c	0.2483947926763389
117	0xbfcd273dee45a118	-0.22776006826757889
118	0x3fca505cc924028b	0.2055774671680591
119	0x3fc830b862ffe109	0.18898682435952477
120	0x3feec30f3c8ec00d	0.9613109762922264
121	0x3fef83b7a03fb3d9	0.984828770624172
122	0x3ff18cb1e16be068	1.096849327614132
123	0x3fc65e9264119847	0.17476110349815796
124	0x3fdd263b0266e980	0.4554584048707042
125	0x3fe20a16222bafad	0.5637312571902747
126	0x3fe42ce133c8ad20	0.6304784785656103
127	0x3fe3c9505299200f	0.6183244336361912
128	0x3fe48a1c80bba1be	0.6418592943492099
129	0xbfb3285e53666aea	-0.0748347238172006
130	0xbfd3710407a6dddc	-0.3037729334568817
131	0x3fe16583210b6753	0.5436416287804867
132	0x3fe428a8010da645	0.6299629231045364
133	0xbfda38a200a0d671	-0.40970659314493846
134	0x3fe38e40fc058e37	0.6111149713801244
135	0xbfbc89b630347ad6	-0.11147631337051264
136	0xbfdceb664ec17e3b	-0.45186765376090293
137	0x3fd69e29412d7cfe	0.3534033905506958
138	0x3fdccce78207f627	0.45000636766767105
139	0xbfc18b1c61717776	-0.13705782659502191
140	0x3fe5d467dbf32a97	0.6821784301658508
141	0x3fc3d1dcd36d52bb	0.15484199832521547
142	0x3fd6550da985408a	0.34894124560106177
143	0xbf83aa0e7b2feb54	-0.009601700910925416
144	0x3fcac3fe300417b7	0.20910622925310715
145	0x3fe2688becaf8e33	0.5752620337265796
146	0x3fdbeaa9ccce29bf	0.43619771004219027
147	0x3fd1c15fc0119d33	0.27742761379927855
148	0x3fd8d6255965c5ae	0.38807042818288096
149	0x3fdc64175e467e16	0.44360908705309166
150	0xbfcda5fcd586f5db	-0.23162804056293748
151	0xbfd0d66754975bdf	-0.2630861593328841
152	0xbfd32907ee78d049	-0.29937933243059384
153	0xbfd559f924dacce6	-0.33361652945605014
154	0x3fde40291f6625f1	0.472666054404356
155	0x3fe1ff76aa7cff4c	0.5624345140313181
156	0x3fa99997512566a1	0.04999993196061082
157	0xbfd063eca33f05f8	-0.2560988992882751
158	0xbf77d408d40b4303	-0.005817446218046698
159	0x3fb4fafb285f8e77	0.0819546674315975
160	0x3fb3369fd6227a58	0.0750522516050095
161	0xbf727e4e45c0ee36	-0.004514985801559448
162	0xbfda6e9d4358d94e	-0.41300136162626166
163	0xbfd715357514a504	-0.3606694835057882
164	0x3fb316a3c8619548	0.07456420557135346
165	0x3facb543a37663b7	0.056070436195291
166	0x3fdc5502e65709d8	0.4426886796392444
167	0x3fbdbae3c303dd65	0.11613296042547956
168	0x3fdaf87c7774ac81	0.42141639390565194
169	0x3fd9f3383862761b	0.40546994692144417
170	0xbfd630093726bcdc	-0.34668188463088057
171	0xbfd7ad137a7d6bbe	-0.3699387260618855
172	0xbfd78b4fdf7b5a8a	-0.3678779299201912
173	0xbfd93d0e205a72c6	-0.39435151252272893
174	0x3fe21788166a7d40	0.5653725087940202
175	0x3fe39a65a48e9c33	0.6125972951894084
176	0x3fcd52bdd16f7055	0.22908756948789014
177	0xbfd8ff18c9a74bd9	-0.39056987469410626
178	0x3fc68b1a7946ab34	0.17612009927446481
179	0x3fcbb2fda711d12a	0.21639986665435035
180	0x3fbd68e456847bcf	0.1148817740654373
181	0x3fbed2ecf02762d9	0.12040596831446794
182	0x3fc65e9264119847	0.17476110349815796
183	0x3ff2b3b563107c03	1.168874155969889
184	0x3fdf19d887479782	0.48595250330833306
185	0x3fac9292e39afe7d	0.05580576923739231
186	0x3fd4c22cc9dd1eec	0.3243514987302507
187	0x3fd6e987e8fb0da6	0.35800359489459266
188	0x3fcecf373ed993de	0.24069872444957147
189	0xbfeb18433e5a3926	-0.8467117517300593
190	0xbfeafddf20e06f14	-0.8434901849863956
191	0x3f87a65b4e52837d	0.011547768905360684
192	0x3fbdb0448499f033	0.11597088086449574
193	0xbfc6f310c0d6faf3	-0.1792927686310218
194	0x3fc4eea513d774f2	0.163532862366004
195	0xbfb579ba1a68f16b	-0.0838886560895326
196	0xbfc9bb2f6bd8d79c	-0.20102494016617534
197	0xbfc87f8f16c34985	-0.1913927899500544
198	0x3f6bedb738d6d71d	0.0034092501216162045
199	0xbfb1f93cf505eb86	-0.07020932180414094
200	0x3fcf3f4afa56f7d8	0.2441190454828177
201	0x3fe2b6851ef85446	0.5847802739032282
202	0x3fd2cdb86907f44d	0.2938061738676126
203	0x3fd6d87e1fc48049	0.3569636640768335
204	0x3fc62f27490aac51	0.17331400934685573
205	0xbf8070eeb2ce506b	-0.00802790148899409
206	0x3fe18bdb5455454f	0.5483223578577653
207	0x3f876952debd24c5	0.011431357786607763
208	0x3fe17b957f6c9abe	0.5463359345202077
209	0x3fdc0c9e7aee58e0	0.4382702064989541
210	0x3fc354511a909551	0.15101064488514251
211	0x3fb439c702bdacdb	0.0790066129390427
212	0x3f9bd12aad99b5a9	0.027165095182160624
213	0xbf8eb6c3cf7fd2f0	-0.014997033853413083
214	0xbfc5ae8ee1cc28fd	-0.16938959145802093
215	0xbf75dab5122827ec	-0.005335528667737659
216	0x3fcf713b3ab5e82f	0.24564304701545
217	0x3f53aac212d2ce54	0.0012003798722560926
218	0x3fcf16d88e61468a	0.24288470222613895
219	0x3fd1855be2e6a6cc	0.27376458318995556
220	0xbfbf696064427b52	-0.12270166824099007
221	0xbfc129287cf9c70c	-0.13406854727104933
222	0xbfc7fad370a93ef8	-0.18734210015326602
223	0xbfc4d9cb218da01e	-0.1628965295633415
224	0xbfc3412b1b8d1a3f	-0.15042628140709444
225	0x3f617b93803229a0	0.0021341210245442027
226	0xbfb511fb597623ac	-0.08230563100927552
227	0xbfc04eb063d1f089	-0.12740139841105627
228	0xbfb3c33d2c07f749	-0.07719786000231212
229	0xbfb3a588db3e7c18	-0.07674460747374245
230	0x3fb694d2305a621c	0.0882083290147268
231	0x3fb4eaddbe49cf82	0.08170877357207298
232	0x3faab92a6bacf8c8	0.05219395222091944
233	0x3facb17f31762745	0.0560416934850552
234	0x3fa4d79874df3471	0.040707363382900826
235	0x3fc6628fbc45a67a	0.17488285725567093
236	0x3fce8bfaec5eec2c	0.2386468557504896
237	0xbfc5e5742ba1182e	-0.17106487398467735
238	0x3fca628294a980c1	0.20613128909008618
239	0x3fceebb932c0b3a1	0.24156870821152857
240	0x3fdb3d316ebd513a	0.4256099301758415
241	0x3fd6ab0815f302d3	0.35418893950922586
242	0x3fdd263b0266e980	0.4554584048707042
243	0x3fdf19d887479782	0.48595250330833306
244	0x3ff04bec0d32385a	1.0185356631732447
245	0x3fdd316a2192300a	0.4561410262911073
246	0x3fe75d404fa0a39c	0.7301332049583951
247	0x3fe846e38507d174	0.7586534116986017
248	0x3fe97a2d1b11de99	0.796164086218556
249	0xbfd3ad1fbce555dc	-0.30744164893016346
250	0xbfe2413577c36800	-0.5704600657584251
251	0x3fdb50cc98f09ae3	0.42680659232648405
252	0x3fe590801c226bca	0.6738892125607603
253	0xbfe1a4d6b7b2a5d4	-0.5513719165657514
254	0x3fe5d39afe281351	0.6820807422633185
255	0xbfd90cfa28f3a1dc	-0.3914170646590074
